…
          "base_uri": "https://localhost:8080/"
        },
        "id": "OYnnEGSm_SeC",
        "outputId": "558c4ca4-8b59-4604-e072-408b85dad9cf"
      },
      "execution_count": 11,
      "outputs": [
        {
          "output_type": "stream",
          "name": "stdout",
          "text": [
            "Model: \"sequential\"\n",
            "_________________________________________________________________\n",
            " Layer (type)                Output Shape              Param #   \n",
            "=================================================================\n",
            " conv2d (Conv2D)             (None, 28, 28, 75)        750       \n",
            "                                                                 \n",
            " batch_normalization (Batch  (None, 28, 28, 75)        300       \n",
            " Normalization)                                                  \n",
            "                                                                 \n",
            " max_pooling2d (MaxPooling2  (None, 14, 14, 75)        0         \n",
            " D)                                                              \n",
            "                                                                 \n",
            " conv2d_1 (Conv2D)           (None, 14, 14, 50)        33800     \n",
            "                                                                 \n",
            " dropout (Dropout)           (None, 14, 14, 50)        0         \n",
            "                                                                 \n",
            " batch_normalization_1 (Bat  (None, 14, 14, 50)        200       \n",
            " chNormalization)                                                \n",
            "                                                                 \n",
            " max_pooling2d_1 (MaxPoolin  (None, 7, 7, 50)          0         \n",
            " g2D)                                                            \n",
            "                                                                 \n",
            " conv2d_2 (Conv2D)           (None, 7, 7, 25)          11275     \n",
            "                                                                 \n",
            " batch_normalization_2 (Bat  (None, 7, 7, 25)          100       \n",
            " chNormalization)                                                \n",
            "                                                                 \n",
            " max_pooling2d_2 (MaxPoolin  (None, 4, 4, 25)          0         \n",
            " g2D)                                                            \n",
            "                                                                 \n",
            " flatten (Flatten)           (None, 400)               0         \n",
            "                                                                 \n",
            " dense (Dense)               (None, 512)               205312    \n",
            "                                                                 \n",
            " dropout_1 (Dropout)         (None, 512)               0         \n",
            "                                                                 \n",
            " dense_1 (Dense)             (None, 24)                12312     \n",
            "                                                                 \n",
            "=================================================================\n",
            "Total params: 264049 (1.01 MB)\n",
            "Trainable params: 263749 (1.01 MB)\n",
            "Non-trainable params: 300 (1.17 KB)\n",
            "_________________________________________________________________\n"
…
